model.pt (torch_old, 88565 bytes, 6 tensors)

fc1.weight f4 [128, 37]
00000000: e81c 46be 66bd b23d 05cd d43c 8b7d 76be
00000010: 89b8 be3c f0b0 8cbe 4ff8 09be 907e 8d3e
00000020: 998a 893d 51c9 833d a9f0 adbe 69c4 babe
00000030: 211a df3d 2859 0d3e bd55 cfbe bbcd 2c3c
00000040: feed db3d fb94 00be d5b0 16be 9092 71be
00000050: 7d3f b5bd c298 593e e88b a5be 22bc be3e
00000060: c828 1c3d 0e51 a1be e459 ce3d 46d7 383d
00000070: 6c21 353e 49cb 12be 2ffd 7bbe e914 1d3e
00000080: a7e9 69be 1a02 c53d a164 6dbe 743b 07be
00000090: e6d0 233d 5f29 a33c 1b31 e5bd 407d aa3d
000000a0: 30e3 d3bd 62ef a7be b0c3 24be 41b0 6dbd
000000b0: d9f9 f7bd b066 aabe 8190 e8bd 82c9 b7bc
000000c0: 60a8 18bc ed45 6dbe 38be e9bc f9b4 a33e
000000d0: e1cd 413e 8f82 1ebf e100 b03c fade 17bf
000000e0: 1ca2 12bf cc7e b6be 26af c2bd b429 94be
000000f0: 8a6b 143e e7a5 fabc 8be8 97bd 69a7 61be
00000100: d619 4ebd d8b0 1bbe ea9c 50be 2ea6 64be
00000110: 0545 683e e7ed 4e3d 66e9 93be 2d9f 343e
00000120: 1301 373e b74c 8e3d 23ae 27be d75e 45be
00000130: 456e 6c3e b4bb a13e abc4 053e cc66 f5be
00000140: 7656 49be 49af 673e cdc3 153e 7074 37bf
00000150: 3192 003e fd9d f43d e17e 20be 359b 68be
00000160: d71c 123e e0b4 73be a9a3 9b3d 440a 263d
00000170: cab3 b33e c6e0 283d 9b2a 87bd 99fa a1be
00000180: bced 5b3e 8374 01bf e7b6 54be fb61 dabd
00000190: f4c7 1f3e 2fce 9e3d ea5b 33bc 9a4e 703e
000001a0: cfb8 d7be 26ac 7a3c 5aeb 06bd 2b0b 23bd
000001b0: 725e bf3d 25b4 143d 582d 0bbd 7147 933e
000001c0: 4b6b e0be dc1a 0a3e 1c7d 66bd 975f 36bf
000001d0: 22ec 913d afbb 123e c4da 23bd 8040 75bd
000001e0: 7991 9dbe 572b 253e c8cc bcbd 623d 2a3c
000001f0: 3f34 c6be 1373 433d 01f7 18be 43ec adbd
00000200: 66cb 1ebd e316 0c3d 3b16 a8bd 91bb 2e3e
00000210: 1d8b 13bf 5b72 033d 14ca bb3d 15e9 55be
00000220: 2eec 893d 85d4 ecbc 5786 d83d 1a9a 723e
00000230: 3db5 473e 40ea 683d 6854 963e 2bcb 8ebd
00000240: d972 b13c 477e d3be c861 b4bd f784 b53b
00000250: 59c3 a5bd 68f9 9bbe bcb4 80bd 1ce2 b0bd
00000260: 66a6 30be f35e 843d a4f9 dfbc 9768 33be
00000270: e4ba 7f3e 9327 9c3d 26c3 b93b 111d 533c
00000280: e3e1 91bd e057 bdbd 1ea7 dcbe 1a92 8bbe
00000290: 9df6 143e 44bc 623c 8a64 28be 37fc 4a3e
000002a0: 8ea2 42bd 4dc8 b9be 96cc 283d 602f 8a3e
000002b0: 9edd 363e 0a8f 3e3d 58be 98be 82b4 f83d
000002c0: 3727 ebbd 88f2 a93e 6485 b13d 5405 b5be
000002d0: 2b18 4a3d 0039 453e f2c8 293e 7167 363e
000002e0: 074b 663d 05c0 9fbd 2704 49bd 4761 edbc
000002f0: 7bbf 1abe 637a 0bbe 3fbc d7bc eb50 213e
00000300: d75a b33b 9a1e b0bd 16dd d1bf cdc3 e8bd
00000310: 826a 083d 4aaa a8bc 47ae 9abe 5421 1ebe
00000320: 15fc fabc a4be 27be 8866 9cbd a7fe 8ebe
00000330: da39 e6be 098b 113d 8138 49be 9464 883e
00000340: 4b08 19be 91b1 8abf c0e4 27be 7043 1c3e
00000350: 071d 52bd c156 1abe ce94 9dbd 1d70 5c3d
00000360: 48d0 f5be 7b14 87bd a247 47be 02b0 1cc0
00000370: b87f 62be 5f91 a43d 6053 a4bc 2213 813c
00000380: 0463 26bd 327b c73c b423 23bd a8b8 8fbb
00000390: c661 dbbd 6432 30be 498e 453e 0c41 693e
000003a0: 5426 8dbc d7ea 183d a123 db3d 3eaf d93d
000003b0: cbe9 703d 44d3 5abd 7e70 a3bd 47a6 be3b
000003c0: c666 743d db98 873e 0cc6 bebc 6d7c 09bd
000003d0: 3d78 e8bc cb40 813c f4c6 733e a5e8 32be
000003e0: 032d 5fbc dcac 443d 3512 a1bd 9288 1f3e
000003f0: 6d27 a13e 205b dfbe c962 97bd a7f1 17bf
-0.19346964 0.08727531 0.025976667 -0.24071328 0.023281353 -0.27478743 -0.13473628 0.27635622
0.067158885 0.064348824 -0.33972672 -0.36477974 0.108936556 0.13803542 -0.404951 0.010547097
0.10738753 -0.12556832 -0.14715894 -0.23591065 -0.0885 0.21249679 -0.32333302 0.3725291
0.03812483 -0.31507152 0.10075739 0.045127176 0.1768853 -0.1433536 -0.246083 0.15340008
-0.22843038 0.096195415 -0.23182918 -0.13206273 0.039994143 0.019917188 -0.11191007 0.08324671
-0.10346067 -0.32799822 -0.16090274 -0.058029417 -0.121082015 -0.3328147 -0.11355687 -0.022434954
-0.0093174875 -0.23171206 -0.028533086 0.3197401 0.18926193 -0.61917967 0.021484794 -0.5932461
-0.5727861 -0.35643613 -0.09506063 -0.28938067 0.14494148 -0.030596687 -0.07417401 -0.22036518
-0.050317608 -0.1520418 -0.20372358 -0.22329018 0.22682579 0.05051985 -0.28889006 0.17638846
0.17871504 0.06948226 -0.16375022 -0.1927446 0.2308894 0.3158852 0.13063304 -0.4792999
-0.19661888 0.2262546 0.14625473 -0.71662045 0.12555768 0.119441964 -0.156734 -0.22715457
0.14268814 -0.23799467 0.07599575 0.040537134 0.35098106 0.041229986 -0.06599923 -0.31636503
0.21477407 -0.5056841 -0.20772897 -0.106632195 0.1560362 0.0775417 -0.010947207 0.23467484
-0.42133185 0.015299832 -0.032939292 -0.039805572 0.09344186 0.03630461 -0.03397879 0.28765443
-0.43831858 0.13486809 -0.056271657 -0.7123961 0.07125117 0.14329408 -0.040003553 -0.059875965
-0.3077505 0.16129814 -0.092187464 0.010390611 -0.38711736 0.047717165 -0.14937975 -0.08492329
-0.038768195 0.034201514 -0.08207365 0.17063738 -0.57634145 0.03209148 0.09169403 -0.20889695
0.06734501 -0.028909931 0.10572498 0.23691598 0.1950273 0.056864023 0.29361272 -0.06972345
0.021661209 -0.4130728 -0.08807713 0.0055395323 -0.080939 -0.3046372 -0.06284472 -0.08636877
-0.17250976 0.064634226 -0.027340718 -0.17520367 0.24973637 0.07624736 0.0056690155 0.012885348
-0.071231626 -0.092452765 -0.4309625 -0.27259904 0.145472 0.013838831 -0.16444603 0.19822775
-0.047518305 -0.3628563 0.041210733 0.2698927 0.17857978 0.04652313 -0.2983272 0.12143804
-0.11482089 0.3319285 0.0866802 -0.35355628 0.049339455 0.19260025 0.16580561 0.17812897
0.056223895 -0.07800297 -0.049076226 -0.02897705 -0.15112107 -0.13620906 -0.02633488 0.15753524
0.0054734754 -0.08599587 -1.6395595 -0.11365471 0.0333047 -0.020589013 -0.30211088 -0.15442401
-0.03063778 -0.16381317 -0.07636744 -0.2792866 -0.44966012 0.035532985 -0.19650461 0.26639235
-0.1494457 -1.0835439 -0.16395855 0.152601 -0.051297214 -0.15072156 -0.07694398 0.053817857
-0.48010468 -0.06595703 -0.1946092 -2.4482427 -0.22119033 0.0803554 -0.020059288 0.015756194
-0.040621772 0.024350736 -0.03982897 -0.0043860264 -0.10712008 -0.17206722 0.19292559 0.2277872
-0.01723019 0.037333336 0.10700155 0.10629128 0.058816712 -0.053424135 -0.079804406 0.0058181616
0.059668325 0.26483807 -0.023287795 -0.033565927 -0.028377647 0.015777966 0.23806363 -0.1747156
-0.0136215715 0.048016414 -0.07864801 0.15579441 0.31475392 -0.4362421 -0.07391889 -0.5935311

fc1.bias f4 [128]
00000000: da4d a9bd 7d01 c7bd 4de4 cfbd 4679 23bd
00000010: dc80 98bd 94f7 30be 2320 a43d 9250 5c3d
00000020: a599 16be f226 28bc f137 39be 3f67 313c
00000030: 902c 01bd c3ad 12be e3cb 793c 9bf6 0bbd
00000040: d950 5aba 270a 5c3d 5c27 25be 0b91 81bb
00000050: 4856 bfbd b9e9 453d 3bdd eb3d 2858 5ebb
00000060: bdd0 013d 1ba4 9f3d f43c f53d c3b5 0dbe
00000070: e4ca dabc d023 f6bc 14e3 463d 28e7 9bbc
00000080: 41fe 22be 3ccb b03c eddd 4bbc a102 23be
00000090: 641f e2bb f2dc f53c 59b6 e4bb 3a0f 3c3b
000000a0: 6f60 933d e19d c33d fd65 783e f7a8 9cbd
000000b0: 46d2 de3c 114c ccbd 7f24 32ba 6620 17bd
000000c0: 85d3 5bbe 6da7 4cbd 9d67 94bd 90ef ddbc
000000d0: b648 cb3c 5c10 ce3d efc3 67bd 8590 b33c
000000e0: cf23 dfbd 6eb4 39ba 84fe 8c3d 16c5 38bd
000000f0: 5b61 79bc 9558 053e 76eb b03b 0ecd f0bc
00000100: 96f2 be3d 5160 4bbc 06a2 223a 1801 acbd
00000110: f4a5 d0bd db27 06be d0b6 d1bd c4ee 95bd
00000120: d026 793a 855f 11be 6aed 15be fc30 f7ba
00000130: 2aaa e63d e0b8 bdbd b7f7 a33c ad06 2ebd
00000140: 1dc2 2bbe 7969 c8bc 66f0 cb3d 893c 34be
00000150: 8f83 73bc 8e91 993d 0f85 863d 3d8c 30be
00000160: ff79 f43c c53c d1bc 2d87 1d3e ab85 67bd
00000170: 8d27 03be d8cd 8dbd 0fd0 d9bd c591 de3b
00000180: ad60 c8bd 9d39 0ebe 218d 08be 5caf c83d
00000190: 8006 1bbe f1f3 90be a693 503d 65a3 4d3e
000001a0: 687a e8bd 9910 56be be30 0fbe 2d38 943d
000001b0: 4956 1fbe ff32 03bd ae84 ab3a 3836 a2bd
000001c0: d397 e0bd 12a2 cfbd c70c 55bd 29fc d73d
000001d0: 8cb1 bab9 a74a 6c3d e1de 0ebe 72b7 38bc
000001e0: 7527 b2bd 7e28 2fbc 410f 1fbe 7624 82be
000001f0: 2e01 e4bc fdff f5bb c723 d53d 7044 f53a
-0.08266802 -0.09717081 -0.10150967 -0.039910577 -0.07446453 -0.17281944 0.08013942 0.053787775
-0.14707048 -0.010263192 -0.18087746 0.010827838 -0.03153664 -0.14324097 0.015246364 -0.03417073
-0.0008328087 0.05372062 -0.16128296 -0.003954058 -0.09342629 0.0483186 0.11516806 -0.0033927057
0.03169321 0.077949725 0.119745165 -0.13838868 -0.026708074 -0.030046374 0.048556402 -0.019031122
-0.15917303 0.021581285 -0.012443048 -0.15918972 -0.0069007147 0.030012581 -0.0069797453 0.00286956
0.071961276 0.095515974 0.24257655 -0.07649415 0.027199876 -0.09975446 -0.00067955995 -0.036896132
-0.21467407 -0.049964357 -0.07246325 -0.027091771 0.024814945 0.10061714 -0.05658334 0.021919498
-0.10895502 -0.0007084076 0.068844825 -0.04510983 -0.015220965 0.13022073 0.005399163 -0.029394653
0.09323613 -0.0124131 0.0006203953 -0.08398646 -0.10187903 -0.13101141 -0.10239947 -0.073209316
0.00095043797 -0.14196594 -0.14641348 -0.0018859203 0.11262925 -0.09263778 0.02001558 -0.042486835
-0.16773267 -0.024464356 0.09957962 -0.17601217 -0.014862909 0.074984655 0.06568348 -0.17240997
0.029843329 -0.025541672 0.15383597 -0.05652396 -0.12808056 -0.06924027 -0.10635387 0.0067922794
-0.097840644 -0.13889165 -0.13335086 0.09799072 -0.15139198 -0.28311113 0.05092206 0.20081861
-0.11351472 -0.20904769 -0.13983437 0.07237277 -0.15560259 -0.032031056 0.0013085806 -0.07920498
-0.10966458 -0.10138334 -0.05201414 0.105461426 -0.00035608967 0.05768838 -0.13952209 -0.0112742055
-0.08698932 -0.010690806 -0.15533163 -0.25418442 -0.027832594 -0.007507323 0.104072146 0.0018712413

fc2.weight f4 [128, 128]
00000000: e879 d8bd 8c73 29bd baab 34be 2b8b 30be
00000010: 5421 2bbd daeb 493d 2de0 543e aa46 743d
00000020: 1b25 2a3e 2faa 6abc 6029 85bd 5591 d23d
00000030: 2d7a 8bbc 070d 14bd 4009 873b 5df1 003e
00000040: e7c1 c53b 949d 263d 4dde 15bd ba74 03bd
00000050: 54e5 933c 076a 06bc 6d77 97be 045c 073e
00000060: b423 c63d 611d 0d3e 9385 f6be c2c3 53bd
00000070: ed19 c1bd fc28 89bc 677f 46bd 8ea7 ce3c
00000080: 1c54 083e e286 82bd 0648 483b b668 83bd
00000090: c517 893d 2bed a1bd bdf4 4abd f156 463c
000000a0: db6c 113d 2a01 49bd f579 3a3e 9a2b 40be
000000b0: 356e 46bd f1fe 953d 1bec bdbd daee 3dbe
000000c0: 2ce9 9ebd 9314 edbc f585 8e3c 6111 e7bc
000000d0: 8785 7a3d 3739 65be 12de 04bd 439d 0bbe
000000e0: 8a7f fb3b a6df b33b 1954 023e ba97 28bd
000000f0: 7777 613e adbd 853e bc25 003d 7e11 d3be
00000100: 692f 85be f42e 50bd 1005 03be 8178 3fbc
00000110: dc24 523c af9b 8abd 0a01 d23d 6653 5abd
00000120: 13dd 04bd 7188 e2be 5327 14bb 7018 19be
00000130: e003 53be a95a 25bd 6442 233d 418f 403e
00000140: 2b19 24bd 8640 c039 95d5 aebd 97aa 02be
00000150: cb1b 20be 09ba ffbc 454a 233d 58b7 1b3d
00000160: 0dd3 5bbd ab1e 0cbd b1d0 893d e4f3 153e
00000170: 54e5 23be c174 0dbe fdf7 a53b f1d3 07bf
00000180: fbf6 883d 779c 053d 021f 42bc 8405 b3bd
00000190: a11a 333d d725 143c a3f2 e0bd 8abc 87bc
000001a0: d394 513e 3c5b 83bc e09d f0bd 77ff 2abd
000001b0: 443d 563d 9a47 02be 8024 233c af86 f83c
000001c0: c32d 57be 1073 2bbd 7c19 2bbe 93c8 143d
000001d0: 003a b53d ed00 523b 2865 41be 88a5 d23c
000001e0: 9a25 9d3d 8adb 763d 8d65 98bd 7d57 60be
000001f0: ae76 5c3d f450 2bbe fc71 813c 858f 8c3d
00000200: 3aae b53b f32d 9e3d a083 1c3e 5b3a 6dbd
00000210: 0586 ce3c 1b7d b53e e59f 5ebe cecd 44be
00000220: a8df 3f3d 3256 9f3d ecf8 763d 2867 653c
00000230: 992e c53d c764 203e c6a6 c03e 2032 17bd
00000240: aa53 88bd ee4e 61be c686 d23a 263d e63d
00000250: 13ac c03d 39c0 973e 709a 01be 9068 233e
00000260: 2dfe 32be 9f76 7cbd c4b5 22be 23be 9a3d
00000270: c107 56be 31cc dbbd 7f59 01bd 1f88 23bd
00000280: 153e 32bd a0c8 fabc db8b ce3d da99 c03d
00000290: 61a0 2bbc 66e0 c2bd 572b ad3d 20fa 223d
000002a0: 1d8e a0be 208c a4bc 1a43 ccbe 85a6 683e
000002b0: 4218 c1bd 754a a63b 689f 39be 3818 9f3e
000002c0: 6151 633e 01ca dc3d 899e 293d acf8 c63e
000002d0: 67fb 6a3d 5136 e3be d417 d63d 2034 283e
000002e0: cdb5 543e a4bc 823d 2ac6 6cbd 5425 9dbc
000002f0: 1a1e 00bc 316a 81bf 3461 0b3e 0d18 97be
00000300: 57a0 b83d 1902 5b3d 7e10 2b3e ed04 773d
00000310: a90c a13e a407 1a3d 6f29 b1bc 94e3 c0bd
00000320: 4fcd 663c 5a57 6dbe 69f9 0e3e e8c1 15bf
00000330: 817e 743d 929a 673e 2ec7 c3ba 752e 1a3e
00000340: c53b d13c 6958 293d d9a5 683e ada0 1f3d
00000350: ac8d fd3d ac69 f63d a093 0f3e 56c0 ca3c
00000360: 30f5 80bd 891a f63b a111 653e 0f47 413c
00000370: f608 773c a33c 003d 0adb 023e c5b5 1ebe
00000380: dbb4 d83b 4c47 393e dce8 003c 2a20 ac3c
00000390: 7a98 e73c d0f8 efbb a65f e73c 6e72 5a3e
000003a0: ca85 3fbe 1bfb c5bd 3d8d 073e bb20 4b3d
000003b0: f507 aabd 9b15 373d adc2 16bd 8bac c0bb
000003c0: efdd bb3b ac4a 6a3d 73d0 0abc 489d 3e3d
000003d0: d028 163e becc f93d 29ef c03d 2e4b 67bd
000003e0: 7157 663d 9182 f2bc 0682 3fbd bb63 d8bd
000003f0: ed2a 323d aad4 613e 8cae 023d b7dd 2c3e
-0.10570127 -0.04136996 -0.17643633 -0.17240588 -0.04177983 0.04929719 0.20788641 0.059637703
0.16615717 -0.0143228015 -0.06502032 0.10281626 -0.017026031 -0.036145236 0.0041209757 0.12592073
0.006035078 0.040677622 -0.036588956 -0.03209374 0.018053688 -0.00820399 -0.29583302 0.13218695
0.096747786 0.13780738 -0.48148784 -0.05170036 -0.09428773 -0.016743176 -0.048461344 0.02522638
0.13313335 -0.06373383 0.0030560507 -0.064164564 0.06693987 -0.07906564 -0.049549807 0.012105689
0.035504203 -0.049073376 0.18210585 -0.18766633 -0.048444945 0.07324017 -0.09273549 -0.18548146
-0.07759318 -0.028940475 0.01739786 -0.02820653 0.061162498 -0.22385107 -0.032438345 -0.1363421
0.007675116 0.0054893075 0.12727393 -0.041160323 0.22018228 0.26121274 0.031285986 -0.41224283
-0.26012734 -0.050826028 -0.127949 -0.011686445 0.012826171 -0.067679755 0.102541044 -0.05330219
-0.032437395 -0.44244722 -0.0022606447 -0.14950728 -0.20606947 -0.040369663 0.039858237 0.18804647
-0.040063065 0.00036669167 -0.08536831 -0.12760387 -0.15635602 -0.031216638 0.03986575 0.038016647
-0.05366807 -0.034208935 0.06729258 0.14643818 -0.1600545 -0.1381407 0.005064963 -0.5305777
0.06687733 0.03261992 -0.011848213 -0.087412864 0.043726567 0.009042225 -0.10983779 -0.016569395
0.20466928 -0.016034715 -0.11748862 -0.041747537 0.05230452 -0.12722626 0.009957433 0.03033766
-0.2101355 -0.04185778 -0.1670894 0.036324095 0.08848953 0.003204401 -0.18886244 0.025713697
0.076731876 0.060267963 -0.07441244 -0.21908374 0.05382412 -0.167301 0.015801422 0.06863312
0.005544451 0.07723608 0.15284586 -0.05791698 0.02521039 0.3544701 -0.21740682 -0.19219133
0.046844155 0.07780112 0.060295984 0.014001645 0.096280284 0.15663444 0.37627238 -0.036913037
-0.06656583 -0.22002766 0.0016061894 0.11242132 0.094078206 0.29638842 -0.1265657 0.15957856
-0.17479773 -0.061636563 -0.1588965 0.07555797 -0.20901395 -0.10732306 -0.03157949 -0.039924737
-0.043516237 -0.030613244 0.10085269 0.09404345 -0.010475249 -0.09515457 0.08455532 0.03978932
-0.31358424 -0.020086348 -0.39894944 0.22719772 -0.09428455 0.005074794 -0.18127215 0.31073165
0.22199012 0.10780717 0.041410957 0.38861597 0.057368662 -0.44377378 0.104537636 0.16426134
0.20772476 0.063836366 -0.05780617 -0.019182838 -0.007819677 -1.0110532 0.13611299 -0.29510537
0.090149574 0.053468797 0.1670551 0.060307432 0.3145497 0.037604943 -0.021626202 -0.09418407
0.014087035 -0.23177853 0.1396233 -0.58499 0.059690956 0.22617558 -0.001493668 0.15056784
0.025541196 0.04134408 0.22719516 0.03897159 0.123805374 0.12031874 0.14021158 0.024749916
-0.06296766 0.0075104875 0.22370006 0.011796727 0.01507782 0.031307828 0.1277887 -0.15499027
0.0066133565 0.18093604 0.007868018 0.02101143 0.028270949 -0.007323362 0.02824385 0.21332714
-0.1870338 -0.09667035 0.13237472 0.04959176 -0.08302299 0.04469834 -0.03680675 -0.0058799437
0.0057332437 0.05720012 -0.00847255 0.046536714 0.14664006 0.121972546 0.09420616 -0.05646818
0.056235734 -0.029603275 -0.04675486 -0.10565897 0.04349797 0.22053781 0.031904742 0.16881453

fc2.bias f4 [128]
00000000: fee3 963e 7919 1c3d 3a28 6bbe 4379 c33d
00000010: d3ba cdbd 6f4f df3d 0047 033d df7d 083e
00000020: 004a 99bd 43d2 f53d a95a 23bd f904 02be
00000030: 55c7 02be c7da dfbd 527d d93d 61bb 74bd
00000040: 24df 63bd f6e3 933c 5ebb f2bc 867a 1cbe
00000050: 481d d6bd 615f 27be cd68 cebd cc36 f63c
00000060: c737 a8bd 7d7b 46bc 6736 e7bd 3178 103e
00000070: 1e5f 5bbd 89df c83d 5e32 4fbe 206e aebb
00000080: ada8 cbbb 5c8b b8bb 71c5 bfbd 1c20 d8bc
00000090: 4b5d a13d 6f03 06bd f89d 36bb 3b1f 17be
000000a0: b079 4abe 6e95 4e3c 0e07 0ebd c57e 8abd
000000b0: 03d5 86bd 722b 433d 3049 d6bd 7a6c 953e
000000c0: 1bfe 333e 64d9 bfbd 5849 8e3d 90d8 43be
000000d0: 0aff dcbd c087 d4bd f4c8 023e bc07 813d
000000e0: e05c e3bd 6bb0 3ebd 5999 3dbe cefa 9fbc
000000f0: e236 acbd 2f27 97bd 9619 20be 30bd a5bb
00000100: 62d3 f23d 9474 0ebe 756d 3cbe 5e01 01be
00000110: d187 a53d 3a0b 63ba 6382 b4bd cb22 1fbe
00000120: a39c 1dbe fb18 ca3e 87ab b1bd f417 edbd
00000130: f318 1d3c 0e03 663c 1dc9 adbd ca05 d3bd
00000140: 966b a93c a6d2 7dbd ec4b e53e cf29 c9bd
00000150: cf8f 3ebe 37dd e0bd ea9f 9ebd d3bb 3cbe
00000160: b3b2 0e3e 7a85 ccbd a875 e2bc 4a61 7f3d
00000170: c136 f2bd 4a27 723d 1539 3abe ca1f 5ebe
00000180: 46ca 11bd a4e5 e1bd f1d5 eabd 3da6 4bbe
00000190: 4b4c e2bd 11aa edbd cd51 2bbe a174 d1bd
000001a0: 27a3 f4bd 7d08 ecbd 2b93 d4bc ea76 be3e
000001b0: 0775 233d dfc4 ebbd 3f04 583c a766 62bd
000001c0: c712 08be 6cbb 80bd faa0 3abd ecc0 15be
000001d0: 1605 5f3c 015a 10be 29af 0abd 8ba4 a03c
000001e0: 61d1 653e c4d2 d73b 50b5 bc3c 7b6a d93d
000001f0: be13 56be dafe 27be e9a8 f6bd 7b32 7ebd
0.2947082 0.03811023 -0.22964564 0.09544613 -0.100453995 0.10903823 0.032050133 0.13329266
-0.074848175 0.12002995 -0.039881382 -0.1269721 -0.12771352 -0.109304 0.10619606 -0.05974901
-0.055632725 0.018053036 -0.02963036 -0.15281114 -0.10454804 -0.16344978 -0.10078583 0.030055426
-0.08213764 -0.012114403 -0.11289673 0.1410835 -0.053557508 0.09808261 -0.20234057 -0.0053231865
-0.006215176 -0.0056318473 -0.09363831 -0.026382498 0.07879122 -0.03271812 -0.0027865153 -0.14758007
-0.19772983 0.012608869 -0.034674697 -0.067624606 -0.065835975 0.047648855 -0.10463178 0.29184324
0.17577402 -0.09367636 0.06947583 -0.19125581 -0.10790832 -0.10377455 0.1277197 0.06300303
-0.11101699 -0.046554964 -0.18515529 -0.019528773 -0.084089056 -0.073805206 -0.1563476 -0.0050579533
0.11856724 -0.13911659 -0.1840113 -0.12598178 0.080825455 -0.00086610357 -0.08813932 -0.15540616
-0.15391783 0.39472184 -0.08675294 -0.11576834 0.009588468 0.014038814 -0.08485625 -0.103038386
0.020681184 -0.061968468 0.44784486 -0.098224275 -0.18609546 -0.109796934 -0.07745345 -0.18431024
0.13935356 -0.09986396 -0.027643993 0.06234864 -0.1182685 0.0591195 -0.18185838 -0.21691814
-0.035593294 -0.110301286 -0.11466587 -0.19887634 -0.11049708 -0.11604703 -0.16730423 -0.10227323
-0.11945181 -0.115250565 -0.025949081 0.372001 0.039906528 -0.115121596 0.013184606 -0.05527368
-0.13288413 -0.06285748 -0.045563675 -0.14624375 0.013612052 -0.14096834 -0.033858452 0.01960971
0.22443153 0.0065864045 0.023035675 0.10616013 -0.20905969 -0.16405812 -0.12043936 -0.06205986

fc3.weight f4 [4, 128]
00000000: 39ae bc3d 4c93 18be 235e e53d d59a f53c
00000010: 3463 e23d 0b73 333d dafe 0dbf e760 17bc
00000020: 2125 94be 64a8 103e 2e72 2c3e 43c8 9abe
00000030: 7e22 bebe e1bf bd3b 89c8 343e e736 2a3e
00000040: a928 1bbf a91e 923c fe39 003e eba4 26be
00000050: 7d88 a33e c3d1 723e 6204 10be 6c50 36bc
00000060: e2b1 7bbd 7ef6 1b3d edc7 7abe a5ab ac3d
00000070: 7112 26be 9079 ef3d 139d 1bbe faf2 b4bc
00000080: 878a c53d f899 0e3e ba5d 08bd edb8 e93d
00000090: cbed 913d 503d 19be a78f 18bf 2852 103e
000000a0: a5d2 54be b6c3 643e 7c21 393d 4296 ba3e
000000b0: b2d4 a1bd 193c e93d 70e9 efbd 3d10 bf3d
000000c0: 76d7 bd3b ceb2 81bd 623b 943c 995d 7abe
000000d0: 07a4 4bbe f7e3 98be bce9 023e 8d75 923d
000000e0: 3837 1e3e 1312 033e 5673 043e 54be 743d
000000f0: 8019 4f3e 525f f73d 1c62 dfbe f2e1 81be
00000100: 6da4 573d c0ab 12bf ba98 42be 4d04 5ebe
00000110: dad8 6e3d 74b0 693d 1c89 cd3d 965c 27be
00000120: cc05 123e 07ac 053e 4517 a6bd d84b 74be
00000130: 2aef efbd 511c 87bd a111 32bf 0041 6e3d
00000140: 4d13 7c3e 5add a0be c595 193e 23e7 f1bd
00000150: cdec 933e 898e c83e 960b d93e ff54 c23e
00000160: 7c7a 9c3d 8535 8dbe 170a 1abd 83f3 44be
00000170: 5a6f bf3c 94d6 973d 21e8 bb3c b5fa 60bd
00000180: b31c 1d3e 5dd3 0c3c 0a7b 633b 8545 873e
00000190: eba9 04be eeb7 56bd 3bfe 46bd 2df2 4a3e
000001a0: b2fe 853e 4281 693e 10f3 923d b7a9 ff3d
000001b0: c77f 543e 1b18 8f3c e1d0 183e 356e 45be
000001c0: 95a6 ff3e c13a 593c fdb7 d03d 6255 01be
000001d0: f975 283e 7405 abbd 043e bbbe 89e2 c9be
000001e0: b02e cd3d 1ce3 9e3d ace1 9b3d fb0d 533d
000001f0: d440 3abd 66c3 45be e195 883d 11fc ccbe
00000200: 7856 ab3d 8602 28bd 9faf 173e b39f 123d
00000210: febb 033e 6107 c7bd b0dc a8be c9d0 af3c
00000220: 69bf 513e 6edb 4a3e 9087 843d 67d1 4e3b
00000230: 5d43 ad3d de79 85be 8f85 3f3e 16ca 913d
00000240: 7557 75be 7ffe 3c3d 6418 393c 7409 8dbe
00000250: 865f 6a3e a280 0c3d 604f 893e 12e9 3b3e
00000260: 8210 5e3e 5219 02bd 59dc bbbd af57 fb3d
00000270: 0ce3 85bd b798 ef3d eeac 20be 505b 2abc
00000280: ce34 f4bd ae3c 0ebb ef68 05be d158 413d
00000290: 79e3 913d 01e4 dbbd cab6 60be d84f 6b3e
000002a0: d5d0 853d 1783 553e 4297 f13d d9e3 5f3e
000002b0: 3d12 493d 702b 3b3e d026 f9be da15 433d
000002c0: 09b2 993b 46a4 153e 068a db3d a881 6ebe
000002d0: dee0 50bd dc0b a9be 5fea 643d 5084 fe3c
000002e0: 22b8 b5bd 8863 a33d 9f80 fcbe c387 36bd
000002f0: c4b6 1e3e a99a dd3c 9e46 07bc 7b78 98be
00000300: 7027 073c a8f0 043e 64e4 aebd dc85 a0be
00000310: 7c40 1f3d 9bb8 f23d e758 31be 2d41 89bd
00000320: f102 7e3e 6ced e33d d78a 953d 80f0 2abe
00000330: 5c8d 00be 5e9d 7ebd cead 713d 413f b93e
00000340: 9351 39bd 2e1d 823e 0396 0a3e 43ef c8be
00000350: 209f 853e 1887 983e 8227 de3e fe32 903e
00000360: 86fc d83d b464 43bc c723 30bd d2a6 d33d
00000370: a272 d33d 7a4e 093e 10ee 75be 80ab 89be
00000380: 6421 123e 4b36 0abe b49a 0c3e ed58 82bd
00000390: f2a9 8e3e bb2b 303c 195f fbbd e402 093f
000003a0: 9e82 17bf da03 4abe 79a1 8cbe bd61 9b3d
000003b0: cd1f c03e 38eb d33d c103 5c3e 2e63 edbd
000003c0: 3bfa b13e a474 453e 8cbf 6cbe 2704 ffbd
000003d0: 9a48 8bbe b139 45be 880b afbc 7f61 c03e
000003e0: 1ed0 243d 8723 723e e560 d03d 0fcf 9c3d
000003f0: 6635 ffbc aee7 27be bfd3 4e3e 70a4 e1be
0.09212918 -0.1489994 0.11199596 0.029981056 0.11054078 0.043810885 -0.55467 -0.009239412
-0.28934577 0.14126736 0.16840431 -0.30230913 -0.3713569 0.005790696 0.17654623 0.16622506
-0.6060892 0.017836886 0.12522122 -0.16273849 0.3194007 0.2371283 -0.14064172 -0.0111275725
-0.06144894 0.03807687 -0.24490328 0.08431176 -0.16217972 0.11693108 -0.15196638 -0.022088517
0.096455626 0.13925922 -0.03329251 0.11412225 0.071254335 -0.14964795 -0.59594196 0.1409384
-0.2078348 0.22340283 0.04519795 0.36442763 -0.079018965 0.11388416 -0.117144465 0.09329269
0.005793507 -0.063329324 0.018094722 -0.24449767 -0.1988679 -0.29861423 0.12784475 0.07151327
0.15450752 0.12799864 0.12934622 0.059751824 0.20224571 0.12078728 -0.4362954 -0.25367695
0.052647043 -0.5729332 -0.19003573 -0.21681328 0.058312275 0.057053044 0.10035917 -0.16343912
0.14260024 0.13053904 -0.08109907 -0.23857057 -0.11715539 -0.06597198 -0.6955815 0.058167458
0.24616738 -0.31418878 0.14998539 -0.11811664 0.28891602 0.39171246 0.42391652 0.37955472
0.076405495 -0.27579895 -0.03760728 -0.19233517 0.023368526 0.074139744 0.022937836 -0.054926593
0.15342979 0.008595315 0.0034710788 0.26420227 -0.12955444 -0.052421503 -0.048582297 0.19818945
0.2617088 0.22803214 0.07175267 0.124835424 0.20751868 0.01746755 0.14923431 -0.19280322
0.4993178 0.013258637 0.10191343 -0.12630227 0.16451253 -0.083506495 -0.36570752 -0.39430645
0.100186706 0.077581614 0.07611403 0.051527005 -0.04547198 -0.1931282 0.06669212 -0.4003606
0.08366102 -0.04101803 0.14813088 0.035796832 0.12864682 -0.09718204 -0.3298087 0.021461861
0.20483173 0.19810268 0.06471169 0.003155792 0.08460114 -0.2606954 0.18703292 0.07118623
-0.23959143 0.046141144 0.011297319 -0.27546275 0.22888002 0.03430236 0.2681837 0.18350628
0.21685985 -0.03176243 -0.09172887 0.12272584 -0.065374464 0.1169905 -0.15690967 -0.010397747
-0.11924134 -0.0021703648 -0.1302831 0.047203843 0.07123465 -0.10736848 -0.21944728 0.22979677
0.06533972 0.20850788 0.11796428 0.2186426 0.04908966 0.18278289 -0.48662424 0.04762826
0.004690413 0.14613447 0.10719685 -0.23291647 -0.0509957 -0.3301686 0.055887576 0.03106895
-0.08873011 0.079779685 -0.4931688 -0.044563066 0.15499407 0.027051287 -0.008256583 -0.2977942
0.008249149 0.12982428 -0.08539656 -0.31352127 0.038879856 0.11851617 -0.1731907 -0.067018844
0.2480581 0.11129269 0.07301872 -0.16693306 -0.12553924 -0.062161796 0.059003644 0.3618107
-0.04524381 0.25412887 0.13533787 -0.39245042 0.26097965 0.29790568 0.43389517 0.28163904
0.1059504 -0.011925865 -0.04300287 0.10334553 0.10324599 0.13408843 -0.24016595 -0.26888657
0.1427055 -0.13497274 0.1373089 -0.063646175 0.27864033 0.010752614 -0.12273998 0.53520036
-0.5918368 -0.19728032 -0.27466944 0.075870015 0.37524262 0.10347599 0.21485807 -0.11591183
0.34761223 0.19282776 -0.23119944 -0.12451964 -0.27203828 -0.19260289 -0.021367803 0.37574384
0.04023754 0.23646365 0.10174731 0.07656681 -0.031153392 -0.16396973 0.20197962 -0.44070768

fc3.bias f4 [4]
00000000: a03b ac3e 084e 8f3e 81a5 923e 4fcf 893e
0.3363924 0.2798922 0.28641894 0.26915976
