model.pt (torch_old, 88565 bytes, 6 tensors)

fc1.weight f4 [128, 37]
0	0x3dedbcdc	0.11608288
1	0x3d055087	0.0325475
2	0xbea7d211	-0.32777455
3	0xbf4a9d6e	-0.7914647
4	0xbea1362f	-0.3148665
5	0x3e4b2d1d	0.19841428
6	0xbe0b157c	-0.13582414
7	0xbdc9afb0	-0.09847963
8	0xbe64a326	-0.22327861
9	0x3d017f8a	0.03161577
10	0xbe7599d0	-0.23984456
11	0xbe81f752	-0.25384003
12	0x3d99be07	0.07506948
13	0xbf0e680f	-0.5562753
14	0xbf5631d6	-0.83669794
15	0xbe2df54d	-0.16988106
16	0xbdc241b5	-0.09485189
17	0x3e9fb04d	0.31189194
18	0xbe8d6d24	-0.2762233
19	0xbd6784b5	-0.056523044
20	0x3de1c117	0.11023157
21	0xbe8070b9	-0.25086
22	0xbed6b2c5	-0.41933265
23	0x3e9a7610	0.301682
24	0xbeeda993	-0.46418437
25	0xbd847c57	-0.064690284
26	0xbe08513a	-0.13312235
27	0xbe97a3b2	-0.29617077
28	0x3d45a9d0	0.04825765
29	0xbf055eb1	-0.5209761
30	0xbcf64fb6	-0.030067306
31	0x3e2e0788	0.1699506
32	0xbf11b557	-0.5691733
33	0xbe09f074	-0.13470632
34	0xbe485a76	-0.19565758
35	0xbe716374	-0.23573095
36	0x3c29ad27	0.010356224
37	0xbd1c8ceb	-0.038220327
38	0x3ccdcc8e	0.025121953
39	0x3e1c82a1	0.15284206
40	0x3e096a59	0.13419475
41	0xbd119c3b	-0.035549384
42	0xbe6a8ac1	-0.22904493
43	0xbdbc6b25	-0.09200124
44	0xbb7a6758	-0.003820857
45	0x3cb6593b	0.022259345
46	0x3a0eb466	0.00054437516
47	0xbd418633	-0.047247123
48	0xbc27233e	-0.0102012735
49	0x3d915ba1	0.07097555
50	0x3d8563d2	0.0651318
51	0x3d47d968	0.04879132
52	0x3ef00a86	0.4688303
53	0xbeb911b8	-0.3614633
54	0xbe4da3ea	-0.2008206
55	0xbf09a0bd	-0.5376089
56	0xbfac2c0f	-1.3450946
57	0xbe3703ae	-0.17872497
58	0xbdbb4f4d	-0.09145985
59	0xbddb83fb	-0.10718533
60	0x3dbba70f	0.09162723
61	0x3e51610a	0.20447174
62	0xbe12a141	-0.14319326
63	0x3cd8a5d7	0.026446266
64	0x3dfefb4f	0.12450277
65	0xbdb52d3c	-0.088465184
66	0xbd39d941	-0.045373205
67	0xb986cadc	-0.00025709614
68	0x3e348ca9	0.17631783
69	0x3e040225	0.12891443
70	0xbd05ec5d	-0.032696117
71	0x3df69c50	0.12041533
72	0xbbeda50d	-0.0072523416
73	0xbccfaba4	-0.0253504
74	0x3e328ad8	0.17435777
75	0xbbf8c935	-0.007592345
76	0x3e02d849	0.12777819
77	0xbe9d9137	-0.30774853
78	0x3ef74457	0.48294327
79	0xbd171469	-0.0368847
80	0xbed02a8c	-0.4065746
81	0x3e7a071f	0.24416779
82	0x3e11749b	0.14204638
83	0xbe99f463	-0.30069265
84	0xbd5960ce	-0.053070836
85	0xbd8c1d60	-0.0684154
86	0x3d8408ec	0.06447014
87	0xbe2c0a9d	-0.16800924
88	0xbeab015f	-0.33399484
89	0xbe51181f	-0.20419358
90	0xbdeda89e	-0.11604427
91	0x3e63bc52	0.22239807
92	0x3e0b84b8	0.13624847
93	0x3ed51105	0.41614547
94	0xbe98f5cd	-0.2987503
95	0xbe0e0ae2	-0.13871339
96	0x3d03b85f	0.03215825
97	0x3e99d7dc	0.300475
98	0xbe4bb4bf	-0.19893168
99	0xbeab6524	-0.33475602
100	0xbcc881ab	-0.024475893
101	0x3eb852a3	0.36000547
102	0xbef37c0b	-0.47555575
103	0xbdd2382c	-0.1026462
104	0xbe87f702	-0.2655564
105	0x3e3ae02e	0.1824958
106	0xbe6776ff	-0.22603987
107	0xbdf9819d	-0.12182925
108	0x3e06c309	0.13160338
109	0x3c25b8b8	0.010114841
110	0xbc94c092	-0.01815823
111	0x3e800c0e	0.25009197
112	0xbd9b41fc	-0.07580945
113	0x3d44668f	0.04794937
114	0xbe1a5cf4	-0.15074521
115	0xbee69686	-0.45036715
116	0x3c7ef32d	0.015560907
117	0x3cf85555	0.030314127
118	0xbdba5c15	-0.090995945
119	0xbd9733cb	-0.073829256
120	0xbe096495	-0.13417275
121	0xbe00914f	-0.12555431
122	0xbe097d43	-0.1342669
123	0x3e5e3bb2	0.2170246
124	0x3d8cdd6f	0.068781726
125	0x3de4bd41	0.1116891
126	0x3c0c71c2	0.008572044
127	0xbcbeb658	-0.023280308
128	0xbdc24a92	-0.094868794
129	0xbe0243fb	-0.12721245
130	0xbec96495	-0.3933455
131	0xbc7a3407	-0.015271193
132	0xbdd1994a	-0.10234316
133	0x3d9d2f7e	0.07675074
134	0x3dd671ee	0.10470949
135	0x3e60c143	0.21948723
136	0xbdda5a2a	-0.10661729
137	0x3d6be7a1	0.057593945
138	0x3e229329	0.1587645
139	0x3e6380fa	0.2221717
140	0x3cecc820	0.02890402
141	0x3e4c63ff	0.1996002
142	0x3e24df35	0.16100772
143	0xbee9e5e3	-0.45683202
144	0xbd801632	-0.062542334
145	0xbeb2a00a	-0.34887725
146	0x3d6d8479	0.057987664
147	0xbb87ce5f	-0.0041444744
148	0xbd2e580a	-0.04256443
149	0xbee342da	-0.4438694
150	0xbdeae822	-0.11470057
151	0xbe12a212	-0.14319637
152	0xbee052d4	-0.43813193
153	0xbd47420b	-0.048646968
154	0x3e349924	0.17636544
155	0xbdd6d196	-0.10489194
156	0x3d9e6ade	0.07735227
157	0xbd8e2ddc	-0.06942341
158	0x3dec9349	0.1155153
159	0xbe666c1f	-0.22502182
160	0x3d041c71	0.032253686
161	0xbf0fbcdf	-0.5614757
162	0xbee0b77d	-0.4388999
163	0xbc3d1156	-0.011539778
164	0xbe929cd5	-0.28635278
165	0xbdb971a3	-0.090548776
166	0x3d60af1b	0.054854494
167	0xbdf63713	-0.12022223
168	0xbeb792ca	-0.3585418
169	0x3daddd77	0.08489507
170	0x3e69a824	0.22818047
171	0xbe62d95c	-0.22153229
172	0x3e9f524b	0.31117472
173	0xbcb0123c	-0.02149307
174	0xbf071933	-0.52772826
175	0x3e9befc7	0.30456373
176	0xbd088ba8	-0.03333631
177	0xbe0ecd97	-0.13945614
178	0x3d99284a	0.07478388
179	0xbde521f8	-0.1118812
180	0x3d9a4736	0.07533114
181	0xbd770af8	-0.060313195
182	0x3e45e1b9	0.19324388
183	0x3e906164	0.28199303
184	0xba87f42f	-0.0010372455
185	0x3c57b98d	0.013166797
186	0xbd05d8b8	-0.032677382
187	0x3cd8f42d	0.02648362
188	0xbcace5a9	-0.021105604
189	0x3d8dfd17	0.06933039
190	0x3e83a34b	0.2571052
191	0x3e5c0c7d	0.21489139
192	0xbf097ae8	-0.53703165
193	0xbea88442	-0.32913405
194	0xbfd540db	-1.6660417
195	0x3d2c59ce	0.042077832
196	0xbdd254f2	-0.10270108
197	0xbd86fd69	-0.06591303
198	0x3bed1201	0.0072348122
199	0xbddf32ed	-0.10898385
200	0x3d718653	0.058965992
201	0x3c8516e1	0.016246261
202	0xbd2a07ed	-0.041511465
203	0xbdbb7509	-0.09153182
204	0xbe1f3bb3	-0.15550117
205	0x3e0e276a	0.13882223
206	0xbb8cdbe4	-0.004298674
207	0x3e0a2757	0.1349157
208	0xbbc343f9	-0.0059590307
209	0xbd37ea58	-0.044901222
210	0x3d177ba6	0.036983155
211	0x3d92da83	0.07170584
212	0x3d514015	0.051086504
213	0xbde0fa55	-0.10985247
214	0xbe0b71a3	-0.13617568
215	0x3d91c23d	0.07117126
216	0xbc76b1ec	-0.015057068
217	0xbd92c46c	-0.07166371
218	0xbc96cafc	-0.018407337
219	0xbe77f26f	-0.24213575
220	0x3d4d370e	0.050101332
221	0x3d2c990b	0.04213814
222	0x3e53c2e4	0.20679814
223	0xbdc3ffb6	-0.09570257
224	0x3c3b105d	0.0114174755
225	0xbe8f7cf9	-0.28025034
226	0xbf560451	-0.83600336
227	0x3da1803e	0.078857884
228	0xbe42658d	-0.18984051
229	0xbd9328a7	-0.07185488
230	0x3d0cb91a	0.034356214
231	0x3df0fa7e	0.117665276
232	0x3e36b975	0.17844184
233	0x3c8a5ffa	0.016891468
234	0xbc4e758d	-0.0126012685
235	0xbdb60226	-0.088871285
236	0x3e4e88ce	0.20169374
237	0xbe452428	-0.19252074
238	0xbe612ff7	-0.21990953
239	0x3e687b43	0.2270327
240	0x3dae6031	0.08514441
241	0x3edecdab	0.43516287
242	0xbd1ce745	-0.038306493
243	0x3d5728c6	0.05252912
244	0x3cdf6c69	0.027273374
245	0xbe52885b	-0.20559828
246	0xbd191bb8	-0.03737995
247	0xbecf3079	-0.4046667
248	0x3e0ee919	0.13956107
249	0xbc1dd4f2	-0.00963329
250	0x3da0ff57	0.07861202
251	0xbb1494eb	-0.002267177
252	0x3e50b9e6	0.20383415
253	0xbde8b5dd	-0.11362813
254	0xbcb72b73	-0.022359585
255	0xbe8cb15e	-0.2747907

fc1.bias f4 [128]
0	0xbd5baabc	-0.053629622
1	0x3d397533	0.045277786
2	0xbda538ee	-0.08067499
3	0xbd8095ca	-0.0627857
4	0xbca2e6bf	-0.019885419
5	0xbd3d632d	-0.04623716
6	0x3dad4742	0.08460857
7	0x3cfedf6a	0.031112392
8	0xbe61e3c0	-0.22059536
9	0xbd470ee8	-0.0485982
10	0xbe080b47	-0.13285552
11	0xbd23aaa4	-0.039957657
12	0xbd15a58e	-0.03653484
13	0xbdcd6428	-0.10028869
14	0xbe063094	-0.13104469
15	0xbcaeac49	-0.021322386
16	0x3c366fbd	0.011135039
17	0x3d266aa6	0.04062905
18	0xbd9b3d52	-0.07580055
19	0xbdd7c1d8	-0.1053502
20	0xbdd28dde	-0.10280965
21	0x3d4e8544	0.05042006
22	0x3e2d702b	0.1693732
23	0xbc450de8	-0.012027241
24	0xbd54ed7b	-0.05198429
25	0x3de50018	0.111816585
26	0x3e22627e	0.15857884
27	0x3ce40759	0.027835535
28	0xb9fdb4da	-0.00048390665
29	0xbd58e85a	-0.052955963
30	0x3de15484	0.11002448
31	0x3da9bde5	0.08288173
32	0xbe18855e	-0.14894626
33	0x3c013ac9	0.007887551
34	0xbd6b3353	-0.057421993
35	0xbe8925e9	-0.26786736
36	0xbd8e6513	-0.06952872
37	0x3d89a92f	0.06721722
38	0x3ddec5b6	0.10877554
39	0xbd4fe95e	-0.050759666
40	0xbcd6e358	-0.026231453
41	0x3dd9d4d7	0.10636299
42	0x3de2d68f	0.1107608
43	0x3d764115	0.06012066
44	0x3d83c955	0.064348854
45	0xbde1224a	-0.10992868
46	0xbc6d85ae	-0.014497204
47	0xbdb19b24	-0.08672169
48	0xbe24a3ed	-0.16078158
49	0x3c114201	0.008865834
50	0x3d32439b	0.043521505
51	0xbcf87906	-0.030331146
52	0xbcfc6d3b	-0.030813804
53	0x3da2c749	0.07948167
54	0x3d12f316	0.035876356
55	0x3d5d5df5	0.054044683
56	0xbd1f94a8	-0.03896013
57	0xbd7b72af	-0.061388668
58	0x3d65b060	0.056076407
59	0xbc7ae483	-0.0153132705
60	0xbdddcc3e	-0.10829972
61	0xbb8d7c1b	-0.004317773
62	0x3d5f7d84	0.05456306
63	0xbe19f3cc	-0.15034407
64	0x3e2ffe72	0.17186907
65	0x3c702752	0.014657812
66	0x3d48e4d8	0.049046367
67	0xbdf2e838	-0.118606985
68	0xbdfb70e0	-0.122773886
69	0xbde54fda	-0.11196871
70	0xbd058488	-0.032597095
71	0xbc9abd15	-0.01888899
72	0x3d4a3158	0.049363464
73	0xbda82c90	-0.082116246
74	0xbe4b3ef6	-0.19848236
75	0x3b9cb265	0.0047820085
76	0x3e60db40	0.21958637
77	0xbd54732a	-0.05186764
78	0x3d9db5bf	0.07700681
79	0xbbbecbb9	-0.0058226255
80	0xbdb463cf	-0.088080995
81	0x3cc8d014	0.024513282
82	0x3c4e8b90	0.0126065165
83	0xbd471577	-0.048604455
84	0xbd6676f6	-0.056265794
85	0x3e4187f7	0.18899523
86	0x3dd1a6bd	0.10236881
87	0xbd4613de	-0.04835879
88	0x3d837e3c	0.06420562
89	0x3d4dec88	0.050274402
90	0x3e127cb5	0.14305384
91	0xbb986a36	-0.004651333
92	0xbe4719dd	-0.1944346
93	0xbda9f26f	-0.08298194
94	0xbd2584d0	-0.040409863
95	0x3cb0fc3d	0.021604652
96	0xbdae5f51	-0.08514274
97	0xbdb70ad6	-0.08937614
98	0xbd557843	-0.052116644
99	0xbb248e93	-0.0025109395
100	0xbe095dc5	-0.13414676
101	0xbe594789	-0.21218695
102	0x3da5988c	0.08085737
103	0x3cc86315	0.024461308
104	0xbe17084f	-0.14749263
105	0xbe5aec2b	-0.21379153
106	0xbdd80fd5	-0.10549895
107	0xbd3d1107	-0.046158817
108	0xbe3a90da	-0.18219319
109	0xbda2a0bc	-0.07940814
110	0x3deaa70a	0.114576414
111	0xbdd0f476	-0.10202877
112	0xbe160039	-0.14648522
113	0xbe1f4398	-0.15553129
114	0xbc80cc6e	-0.01572248
115	0x3db893b3	0.090125464
116	0xbb51d450	-0.0032017417
117	0x3dd2c54a	0.10291536
118	0xbdcbe933	-0.099565886
119	0xbda25c6f	-0.079277866
120	0xbcb811af	-0.02246937
121	0xbd625138	-0.055253237
122	0xbe19b010	-0.15008569
123	0xbe398828	-0.18118346
124	0xbcfe75c3	-0.031062013
125	0x3c89352e	0.01674899
126	0x3d6d4972	0.05793137
127	0xbd5d3c46	-0.05401256

fc2.weight f4 [128, 128]
0	0x3d3f9ede	0.046782367
1	0x3d25b34a	0.040454186
2	0xbcf0b905	-0.0293851
3	0x3de9465c	0.11390373
4	0x3de0ac12	0.1097032
5	0x3cf12a4d	0.029439116
6	0x3b547c88	0.003242286
7	0xbd3c0f60	-0.0459131
8	0x3d884130	0.066530585
9	0xbdbc6192	-0.091982976
10	0xbcc8ff6f	-0.024535863
11	0x3e1f89b8	0.1557988
12	0x3e299b11	0.1656306
13	0x3cdb8c41	0.026800277
14	0xbe087316	-0.13325152
15	0x3db80f4d	0.089872934
16	0x3d33d5ad	0.04390495
17	0xbd8a23cb	-0.06745108
18	0xbc8167c8	-0.015796557
19	0x3df8a3f5	0.12140647
20	0x3d2e2cc5	0.042523164
21	0x3e2f4a2f	0.17118143
22	0xbe1476cb	-0.14498441
23	0xbc4c7962	-0.012480112
24	0xbe240729	-0.16018356
25	0x3d2c6d4a	0.042096414
26	0xbe3c3fdf	-0.1838374
27	0xbcba1289	-0.022713916
28	0xbbaecb24	-0.005334275
29	0x3e98058d	0.29691735
30	0x3dd39594	0.10331264
31	0x3ccca173	0.024979329
32	0x3cd95536	0.02652989
33	0xbe9271a6	-0.28602332
34	0xbc3ae004	-0.011405949
35	0xbdc53178	-0.09628576
36	0xbe095590	-0.13411546
37	0xbda1e57d	-0.079050995
38	0x3d1419b0	0.03615731
39	0xbd8c32f3	-0.06845655
40	0xbd530efd	-0.051527966
41	0xbe503997	-0.20334469
42	0xbe4e1086	-0.2012349
43	0x3e010e45	0.126031
44	0xbd61fefd	-0.055174816
45	0xbe073590	-0.13204026
46	0xbe250f43	-0.16119103
47	0xbdadf5c3	-0.08494141
48	0xbe8d92b9	-0.27651003
49	0xbe1c6b19	-0.1527523
50	0x3e1711ca	0.1475288
51	0xbd2e7e94	-0.042601183
52	0x3d007ea4	0.031370774
53	0x3d375df2	0.044767328
54	0xbe82dab7	-0.2555749
55	0xbc219fa8	-0.009864725
56	0x3e338002	0.175293
57	0xbd931e45	-0.07183508
58	0x3f09e17b	0.5385968
59	0x3ce4bada	0.027921129
60	0xbe5d671f	-0.21621369
61	0xbd4a655b	-0.049413066
62	0xbc932ace	-0.017964747
63	0x3c9a5dbc	0.018843524
64	0xbe1de7ce	-0.15420458
65	0xbd5cdb50	-0.05392009
66	0x3dd217dd	0.10258458
67	0x3d268a69	0.040659342
68	0xbde5193b	-0.11186453
69	0x3d2d01e7	0.042238142
70	0x3dd2b93a	0.102892354
71	0x3e630309	0.22169127
72	0xbd2b0029	-0.0417482
73	0xbde20ac0	-0.11037207
74	0x3e348ee9	0.17632641
75	0x3f06ee49	0.52707344
76	0x3d07e546	0.033177637
77	0x3dff13bf	0.12454938
78	0x3d931016	0.071808025
79	0x3e39d9de	0.18149516
80	0x3de86dd0	0.1134907
81	0xbd52b7a9	-0.051444683
82	0xbdc61bdf	-0.09673285
83	0x3bd82a7b	0.006596861
84	0xbe85ea20	-0.26155186
85	0x3b031b07	0.0020005123
86	0xbc72d4cf	-0.014821245
87	0x3df64a0b	0.12025841
88	0xbc68e4a0	-0.014214665
89	0xbd27c840	-0.040962458
90	0xbe222e2a	-0.15837923
91	0xbdc4f4da	-0.09617014
92	0xbd19fd13	-0.037594866
93	0xbe7f91d3	-0.24957971
94	0x3cb04505	0.021517286
95	0xbdb7f0c3	-0.089814685
96	0x3b9ba63c	0.0047500413
97	0x3da7620e	0.08172999
98	0xbeb16f6c	-0.3465532
99	0xbe5b9ce2	-0.21446565
100	0xbdfea141	-0.124331005
101	0xbdf0fac3	-0.11766579
102	0x3c219ef4	0.009864558
103	0x3d00e7ba	0.03147099
104	0xbde166aa	-0.1100591
105	0xbd3d6c3d	-0.046245802
106	0xbd86e975	-0.06587497
107	0xbdc7956e	-0.09745298
108	0x3c96bfbc	0.018401973
109	0xbe51b94c	-0.20480841
110	0xbd82e77a	-0.06391807
111	0x3e220ab2	0.15824392
112	0x3daca823	0.08430507
113	0x3dddd5ae	0.10831772
114	0xbc8cef05	-0.017203817
115	0xbe7570fc	-0.23968881
116	0xbdef6715	-0.11689583
117	0xbe60e01d	-0.21960492
118	0xbe2954f5	-0.16536315
119	0x3e2ce432	0.16883925
120	0x3c0643c8	0.008194871
121	0xbc874951	-0.016514452
122	0xbc8c966e	-0.017161574
123	0xbea0e7e0	-0.31426907
124	0xbdb8b0a4	-0.090180665
125	0x3dec46dd	0.115369536
126	0xbd84ec4a	-0.06490381
127	0x3ddeee20	0.108852625
128	0xbddc409d	-0.107545115
129	0x3d524179	0.05133197
130	0x3da395d3	0.07987561
131	0xbe9dcffc	-0.30822742
132	0x3d000107	0.03125098
133	0xbdcc229a	-0.09967537
134	0x3daae065	0.08343581
135	0xbe08c409	-0.13356031
136	0x3d46ea9b	0.04856358
137	0xbe5d70f7	-0.21625124
138	0xbd54ee9f	-0.05198538
139	0xbd00cc49	-0.03144482
140	0x3cdc4501	0.026888372
141	0xbdbacee3	-0.09121492
142	0xbb56b816	-0.0032763532
143	0xbda86ee3	-0.08224275
144	0x3e11a7a5	0.14224108
145	0x3c897cfc	0.01678323
146	0xbd8d115e	-0.06888078
147	0xbb966f70	-0.004590921
148	0x3b9fc167	0.0048753503
149	0x3d854234	0.06506768
150	0xbe000119	-0.12500419
151	0xbe8c521a	-0.2740639
152	0xbe25ade8	-0.16179621
153	0xbdd006de	-0.1015756
154	0xbdac10d4	-0.08401647
155	0x3bbc442b	0.005745431
156	0xbde8a9ce	-0.11360513
157	0xbf3e23e8	-0.7427354
158	0xbd923498	-0.07138938
159	0x3e95b0d2	0.29236466
160	0x3dc52bfa	0.096275285
161	0xbe92f662	-0.287036
162	0x3d936747	0.07197433
163	0x3c378d14	0.011203069
164	0x3d3d487c	0.046211705
165	0xbe21eed7	-0.15813766
166	0xbf006beb	-0.5016467
167	0xbc4b8875	-0.012422671
168	0xbcd95bde	-0.026533064
169	0x3dd368f1	0.1032275
170	0xbe05e91e	-0.13077208
171	0xbcdd8881	-0.02704263
172	0xbea8fd5f	-0.33005807
173	0xbdc6e5c0	-0.0971179
174	0xbea6119b	-0.32435307
175	0x3dba16d6	0.09086387
176	0xbd411f46	-0.047148965
177	0xbc58a6aa	-0.01322333
178	0x3d345fbe	0.04403662
179	0xbd8e4b01	-0.069478996
180	0xbe5b64d0	-0.21425176
181	0x3df95497	0.12174337
182	0xbcae7600	-0.021296501
183	0xbeb6b4ca	-0.35684806
184	0x3da055c4	0.078288585
185	0x3c7ef7e9	0.015562036
186	0x3f657b70	0.89641476
187	0xbc2760cc	-0.010215949
188	0xbcdede1e	-0.027205523
189	0x3d350bc5	0.044200677
190	0x3e01a6fd	0.12661357
191	0xbd82c4ac	-0.063851684
192	0x3d251694	0.040304735
193	0x3ce9babc	0.028531425
194	0x3c6815ad	0.014165324
195	0xbbe830f9	-0.007085916
196	0xbe56df41	-0.20983602
197	0x3dc4f0c6	0.096162364
198	0x3c3b2c72	0.011424171
199	0x3f0324d5	0.51228076
200	0xbaf5b427	-0.0018745706
201	0xbda0a5e7	-0.07844143
202	0x3e2e0980	0.16995811
203	0x3ec8c84a	0.39215308
204	0x3cda1ac8	0.026624098
205	0x3c513e4f	0.012771203
206	0xbc928293	-0.017884528
207	0x3e82487a	0.2544592
208	0xbe8983fd	-0.26858512
209	0xbe3a14d4	-0.18172008
210	0xbdb0a1ab	-0.08624586
211	0x3e3019ee	0.17197391
212	0x3caac0d7	0.020843906
213	0x3c163120	0.009166986
214	0xbd5f3031	-0.05448932
215	0xbde94bd8	-0.11391419
216	0xbd49408d	-0.049133826
217	0x3e41b3a7	0.18916188
218	0xbefdc33e	-0.4956302
219	0xbd61c8dc	-0.055123195
220	0xbe0207a6	-0.1269823
221	0xbd3f7db9	-0.046750758
222	0x3bf00bfb	0.007325647
223	0xbdab0d1b	-0.08352109
224	0x3e13eb6b	0.14445274
225	0xbced223b	-0.028946986
226	0xbd47278e	-0.048621707
227	0x3e42d41a	0.19026223
228	0x3e0ab084	0.13543898
229	0x3d23086a	0.039802946
230	0x3e1da6c2	0.15395644
231	0x3d9b1cef	0.07573878
232	0x3c64cc48	0.01396472
233	0xbcbf5181	-0.023354294
234	0x3df1df6d	0.11810193
235	0x3bae6a20	0.0053227097
236	0x3ca05170	0.019570082
237	0xbe2c1b70	-0.16807342
238	0xbcf86f9e	-0.03032666
239	0x3cdfd9e4	0.027325578
240	0xbe179944	-0.1480456
241	0x3d5fa155	0.054597218
242	0x3d7ec441	0.06219888
243	0xbe0bfb58	-0.13670099
244	0x3e025499	0.12727584
245	0x3c0d8895	0.008638521
246	0xbe2fdce8	-0.17174113
247	0x3dbf8543	0.093515895
248	0xbab42120	-0.0013742782
249	0x3ea93ebe	0.3305568
250	0xbdb1a1e7	-0.086734585
251	0xbcbd7018	-0.02312474
252	0x3e8f6568	0.28007054
253	0xbdeb844d	-0.11499844
254	0x3e68c39b	0.22730868
255	0x3d769f4a	0.060210504

fc2.bias f4 [128]
0	0x3d8f48a4	0.06996277
1	0x3dd893e2	0.105750814
2	0x3d1e470a	0.038641967
3	0x3c062fe7	0.008190132
4	0xbe431c9e	-0.19053885
5	0x3e3bc8fd	0.1833839
6	0xbd8b5780	-0.06803799
7	0xbd8a2829	-0.06745941
8	0xbe271b90	-0.16319108
9	0x3b5f893d	0.00341089
10	0x3d45d60a	0.048299827
11	0xbbb2e3b3	-0.005459273
12	0xbe1e835a	-0.15479794
13	0x3d0d8da0	0.034558892
14	0xb7c9a4d0	-2.4037814e-05
15	0xbe3a3bd5	-0.18186887
16	0xbd10e653	-0.035375904
17	0xbdae5928	-0.08513099
18	0xbe1611f9	-0.14655294
19	0xbd97760f	-0.07395565
20	0xbdba279a	-0.09089585
21	0xbced975d	-0.02900284
22	0xbd7cdcb8	-0.06173393
23	0x3bae067b	0.005310831
24	0xbd930434	-0.07178536
25	0xbd4c0fb7	-0.049819674
26	0xbdc63d54	-0.09679666
27	0xbd360bc4	-0.044444814
28	0xbd92ff40	-0.07177591
29	0x3d214e22	0.039381154
30	0xbdc6afbf	-0.0970149
31	0x3d89882f	0.06715428
32	0xbce9a999	-0.028523253
33	0xbd590f01	-0.052992824
34	0xbddd948e	-0.1081935
35	0x3e611cf5	0.21983702
36	0xbd594a72	-0.053049512
37	0xbcf9d788	-0.030498281
38	0xbd14956b	-0.03627531
39	0xbcc845ba	-0.02444731
40	0xbe3a7743	-0.18209557
41	0x3da57c0b	0.080803
42	0x3d961950	0.07329047
43	0xbdd7e237	-0.10541194
44	0xbdbc8c96	-0.09206502
45	0x3cac844b	0.021059176
46	0xbde34d28	-0.11098701
47	0x3d916bd4	0.07100645
48	0x3e49ce9f	0.19707726
49	0xbe50603b	-0.20349209
50	0x3d2ea6d0	0.042639554
51	0xbcae5923	-0.021282738
52	0xbd9038c6	-0.07042079
53	0xbdc750a3	-0.09732177
54	0xbdf5a8db	-0.11995097
55	0xbd3b6e0a	-0.04575924
56	0xbd450855	-0.04810365
57	0xbd327f28	-0.043578297
58	0x3d166cdd	0.036724914
59	0x3de406db	0.1113412
60	0xbd8b6cda	-0.06807871
61	0xbe2d5234	-0.16925889
62	0xbdaa3bd6	-0.08312194
63	0xbd9d9bee	-0.07695757
64	0xbd1e2538	-0.038609713
65	0xbd5bdc52	-0.05367691
66	0xbdde0344	-0.108404666
67	0xbd0ed58b	-0.03487162
68	0x3e1255f5	0.14290603
69	0xbd0252d4	-0.031817272
70	0xbc7fbf2c	-0.015609544
71	0xbd921d03	-0.0713444
72	0xbe02e4af	-0.12782548
73	0x3e8b7852	0.27240235
74	0xbd91d742	-0.07121135
75	0x3e2423a8	0.16029227
76	0x3ba1d3ca	0.0049385773
77	0xbd646102	-0.055756576
78	0xbe2face0	-0.1715579
79	0xbd5ed84e	-0.054405503
80	0xbe7ba554	-0.24574786
81	0xbdf6505e	-0.120270476
82	0x3eeb7207	0.45985433
83	0xbd42e95d	-0.047585834
84	0xbdf4aa8a	-0.1194659
85	0xbdca56ee	-0.09879862
86	0xbdae76d7	-0.08518761
87	0xbdb63f63	-0.08898809
88	0xbaf689bf	-0.0018809362
89	0xbcc49379	-0.023996102
90	0xbdb1b958	-0.0867793
91	0xbd313be0	-0.043269992
92	0xbe5d7172	-0.21625307
93	0xbd693de9	-0.056943808
94	0xbe0e0d10	-0.1387217
95	0xbdcd6f9d	-0.10031054
96	0xbe121d6a	-0.14269033
97	0xbe426a06	-0.18985757
98	0x3cf251e4	0.029580064
99	0xbe5d90fe	-0.21637341
100	0x3e91d19f	0.2848024
101	0xbd03ceef	-0.03217977
102	0xbdb7d0b5	-0.089753546
103	0xbe38fa8a	-0.18064323
104	0xbdbaa51b	-0.091135226
105	0x3a455e66	0.000752902
106	0xbcb3bf3e	-0.021941777
107	0x3d87d932	0.066332236
108	0x3c99a2f0	0.018754452
109	0xbc6ba6a1	-0.014382989
110	0xbd4788c5	-0.048714418
111	0xbe065bf8	-0.13121021
112	0xbdbbc457	-0.09168308
113	0xbdf54f66	-0.11978035
114	0xbdad22ee	-0.08453928
115	0xbd76a9ca	-0.060220517
116	0xbd3c4a8e	-0.04596954
117	0xbaa359f5	-0.0012462722
118	0xbcfeffb6	-0.031127792
119	0xbd5fb44b	-0.0546153
120	0x3e2cdb62	0.16880563
121	0x3cd5c93f	0.026096938
122	0x3b83145d	0.00400023
123	0xbc2b295b	-0.010446872
124	0xbe244a0d	-0.16043873
125	0xbd8a3db5	-0.06750051
126	0xbdb97a74	-0.09056559
127	0xbd8c4608	-0.06849295

fc3.weight f4 [4, 128]
0	0x3c1c9478	0.009556882
1	0x3da4381a	0.08018513
2	0xbd4808f7	-0.048836675
3	0x3df5accd	0.1199585
4	0xbe228f03	-0.15874867
5	0x3da54fb2	0.08071841
6	0x3dfffdeb	0.12499603
7	0x3e158094	0.1459983
8	0x3e8ee36b	0.2790788
9	0x3e5debc0	0.21671963
10	0x3d831c0f	0.06401836
11	0xbe3f3de8	-0.18675959
12	0xbe3b8f7b	-0.18316452
13	0x3e1a5896	0.15072855
14	0xbd02a5fb	-0.031896573
15	0x3e5342bf	0.2063093
16	0x3e32166a	0.17391363
17	0x3e80a88f	0.251286
18	0xbe63f34c	-0.22260779
19	0xbdfcf968	-0.12352258
20	0x3d304fbc	0.04304479
21	0x3e642cee	0.22282764
22	0xbe630535	-0.22169955
23	0xbf0ab317	-0.5417952
24	0x3d108a35	0.035288054
25	0x3cfd146e	0.03089353
26	0xbe819181	-0.25306323
27	0xbcc84e7a	-0.024451483
28	0x3dd4860b	0.10377129
29	0x3eb5a278	0.35475516
30	0xbe556647	-0.20839797
31	0xbd4a6454	-0.049412087
32	0xbe751d63	-0.23936991
33	0x3b90a2c9	0.0044139368
34	0xbd5fb1f7	-0.05461308
35	0x3e531a9b	0.20615618
36	0xbaaeb334	-0.0013328553
37	0xbea34903	-0.3189164
38	0xbca0f6bf	-0.019648908
39	0x3ed33005	0.41247573
40	0xbce2bbfd	-0.02767753
41	0x3d984958	0.07435864
42	0xbf1d3a1e	-0.61416805
43	0x3d34f9e3	0.044183623
44	0x3df722c2	0.120671764
45	0x3db93194	0.090426594
46	0x3db9a271	0.09064186
47	0x3ecd5b48	0.40108705
48	0x3adf1a67	0.0017021418
49	0xbe5ff145	-0.21869381
50	0x3c8b2d4c	0.016989373
51	0x3e1b6815	0.15176423
52	0xbde9bf3b	-0.114134274
53	0xbd75753f	-0.059926268
54	0x3e332249	0.17493547
55	0x3d3bfdad	0.04589622
56	0x3e4cb768	0.19991839
57	0x3e0f4eba	0.13994876
58	0x3e7850b2	0.24249533
59	0x3e17b6f6	0.14815888
60	0xbe10e2d5	-0.1414903
61	0xbd66c740	-0.056342363
62	0x3e4970bf	0.19671915
63	0xbf027fe2	-0.50976384
64	0x3e189428	0.14900267
65	0xbea2790b	-0.31732973
66	0x3d44aafc	0.048014626
67	0x3c4144f6	0.011796227
68	0x3e5554f5	0.2083319
69	0xbd588fef	-0.05287164
70	0xbc9992e1	-0.018746795
71	0xbc484072	-0.012222396
72	0xbdf148ae	-0.11781441
73	0x3dd73369	0.105078526
74	0x3db79010	0.089630246
75	0x3db545f2	0.08851232
76	0x3e3d4da0	0.18486643
77	0xbdbf5f5a	-0.09344359
78	0xbe2dafc4	-0.1696158
79	0x3e2bca95	0.16776498
80	0x3ce5435c	0.027986221
81	0xbf0c5744	-0.54820657
82	0x3e2352bd	0.15949531
83	0xbd14965b	-0.036276203
84	0xbd82018d	-0.06347952
85	0xbd0db0b8	-0.03459236
86	0x3e049969	0.12949146
87	0x3db035de	0.08604024
88	0x3e9d51ba	0.30726415
89	0xbde46664	-0.11152342
90	0x3db64107	0.08899122
91	0xbe968610	-0.29399157
92	0xbda34589	-0.07972247
93	0x3eb79cca	0.35861808
94	0x3d74f46f	0.059803423
95	0xbe47cccf	-0.19511722
96	0x3e0f634f	0.14002727
97	0xbef8c0a7	-0.48584482
98	0x3df68fec	0.1203917
99	0x3d6e49af	0.05817574
100	0x3de1c041	0.11022998
101	0xbe59f801	-0.21286012
102	0x3cb5a2d3	0.022172367
103	0xbe005dee	-0.12535831
104	0x3e1e2018	0.1544193
105	0xbd7edf1e	-0.0622245
106	0x3e628650	0.22121549
107	0x3e015e28	0.12633574
108	0x3d34f29d	0.044176687
109	0xbec2493c	-0.37946498
110	0x3d63559d	0.05550157
111	0xbe2342b4	-0.15943414
112	0xbcaa4b4b	-0.020787856
113	0xbdf01a5e	-0.11723779
114	0xbd66dd95	-0.05636366
115	0xbe07f4f5	-0.13277037
116	0x3e108657	0.14113747
117	0x3e684687	0.22683154
118	0xbe6ea683	-0.23305707
119	0xbee560d1	-0.44800428
120	0xbc665b1c	-0.014059808
121	0x3da8e44e	0.08246671
122	0xbe3a5b4b	-0.18198888
123	0x3ee09acd	0.43868104
124	0x3d96e7ec	0.07368454
125	0xbe6144bc	-0.21998876
126	0xbe2ba45a	-0.16761914
127	0x3deff8d0	0.11717379
128	0x3d6ce76a	0.05783788
129	0x3de8fcce	0.11376344
130	0x3d764f0b	0.060133975
131	0xbe247362	-0.1605964
132	0xbe223f93	-0.15844564
133	0x3cb17ed2	0.021666918
134	0xbe02f452	-0.12788513
135	0x3e8877f5	0.2665402
136	0x3eb2753b	0.34855065
137	0x3e89568a	0.26823837
138	0x3d6e3328	0.058154255
139	0xbe362452	-0.17787293
140	0x3e8ac08b	0.27100024
141	0xbe2db08d	-0.1696188
142	0x3bfaf826	0.007658976
143	0x3ec6bbd1	0.38815168
144	0xbe2a45b5	-0.16628154
145	0x3e2a87c3	0.16653351
146	0x3e520732	0.20510557
147	0xbc645a23	-0.013937506
148	0xbeed8974	-0.4639393
149	0x3e3c3874	0.1838091
150	0x3deb1ac2	0.11479713
151	0x3da87726	0.08225851
152	0x3df0e71b	0.1176283
153	0x3d76729b	0.06016789
154	0xbe8ae35a	-0.2712658
155	0xb9e8bc6c	-0.00044390874
156	0x3cacfcbe	0.02111661
157	0x3e6dfe8e	0.23241636
158	0xbd009599	-0.031392667
159	0xbc771e63	-0.015082928
160	0x3dd11d05	0.10210613
161	0xbcd3dfad	-0.025863493
162	0xbd913c92	-0.07091631
163	0x3db9a3bb	0.09064432
164	0x3d3bc60b	0.045843165
165	0xbe6deb7f	-0.23234366
166	0xbe93557f	-0.28776166
167	0x3ec378e3	0.38178167
168	0xbd8b9bc0	-0.06816816
169	0xbda222ab	-0.07916769
170	0x3dbe7673	0.09299936
171	0x3cbfcb00	0.023412228
172	0x3d022efc	0.03178309
173	0x3de6767d	0.112530686
174	0xbdde87aa	-0.108657196
175	0x3e815462	0.2525969
176	0x3d3d8fb4	0.046279624
177	0x3e634b52	0.22196701
178	0x3dda70d3	0.10666051
179	0xbdf5fe4d	-0.12011395
180	0xbdd4b2fc	-0.10385701
181	0xbe253af7	-0.16135775
182	0x3e362cdb	0.17790549
183	0x3d78cb7e	0.06074094
184	0xbe75af4f	-0.23992656
185	0xbd37ecf4	-0.04490371
186	0x3e32b6ba	0.17452517
187	0x3e23e926	0.16006908
188	0x3eaafee8	0.33397603
189	0x3ce2ac21	0.027669968
190	0x3ea6aba0	0.32552814
191	0xbd8f35bd	-0.06992672
192	0x3e6bebca	0.23039165
193	0xbe8e0ed0	-0.27745676
194	0x3dab7ad5	0.08373038
195	0xbe4ae291	-0.1981299
196	0x3dd196c2	0.10233833
197	0x3deb4a75	0.11488811
198	0xbdc6c141	-0.09704829
199	0x3dee1881	0.116257675
200	0x3e3a89ad	0.18216582
201	0x3dded89c	0.10881159
202	0x3e1adb91	0.1512282
203	0x3d4c8b34	0.049937442
204	0x3d41fac0	0.047358274
205	0x3c3757e4	0.011190388
206	0xbcc4f05a	-0.02404039
207	0x3e012163	0.12610392
208	0x3e4bc3fa	0.19898978
209	0xbe14f3d0	-0.14546132
210	0x3e04cfcf	0.12969898
211	0xbea0beed	-0.31395665
212	0x3e4bbde8	0.19896662
213	0x3dadb70c	0.08482179
214	0xbc6c43e3	-0.014420482
215	0x3c6344fe	0.0138714295
216	0x3e8a7c5f	0.27048013
217	0x3d8ec083	0.069703124
218	0x3dd99c35	0.10625497
219	0xbd954d8f	-0.07290184
220	0x3e09617e	0.13416097
221	0x3ea9d195	0.3316771
222	0xbcea387e	-0.02859139
223	0xbd74dd3d	-0.0597813
224	0x3e870ec6	0.2637846
225	0xbe68056f	-0.22658323
226	0x3e075248	0.13214982
227	0x3e315e21	0.17321064
228	0x3dd223db	0.10260745
229	0x3df83a9e	0.12120555
230	0xbde76e4f	-0.113003366
231	0xbe2b2bd5	-0.1671594
232	0xbe9c488c	-0.305241
233	0x3d0a28a6	0.03373017
234	0xbe871ab0	-0.26387548
235	0x3dddf4e1	0.108377226
236	0x3e4e8115	0.20166428
237	0x3ed649d7	0.4185321
238	0xbe12d12a	-0.14337602
239	0xbe1222f1	-0.14271142
240	0x3ddf30f4	0.10898009
241	0xbe173162	-0.14764932
242	0xbe2e01cc	-0.16992873
243	0xbd82c12c	-0.06384501
244	0xbe81464a	-0.2524894
245	0x3dd22d1b	0.102625094
246	0xbec0be2a	-0.37645084
247	0x3e92e920	0.28693485
248	0x3e1f6a9f	0.15568016
249	0x3c9d8583	0.019228702
250	0xbe128bf9	-0.14311208
251	0xbebd4bd1	-0.36971906
252	0x3edd5b86	0.4323389
253	0xbe028d6e	-0.12749264
254	0xbe8eee71	-0.2791629
255	0xbd6b9d60	-0.05752313

fc3.bias f4 [4]
0	0x3e9f59e4	0.3112327
1	0x3e962ca0	0.2933092
2	0x3e928666	0.28618163
3	0x3e868647	0.2627432
